…
True     321345
False    273854
Name: TARGET0, dtype: int64
[ 0.]
[-3.  -2.4 -1.8 -1.2 -0.6  0.   0.6  1.2  1.8  2.4  3. ]
[ 1.  2.  3.  4.  5.]
Saved model to disk : [mymodel.json,mymodel.h5,mymodel.jpg]
[compileModel] samples: 107968, timesteps: 64, features:38
____________________________________________________________________________________________________
Layer (type)                     Output Shape          Param #     Connected to                     
====================================================================================================
input_1 (InputLayer)             (None, 64, 38)        0                                            
____________________________________________________________________________________________________
lambda_1 (Lambda)                (None, 64, 4)         0           input_1[0][0]                    
____________________________________________________________________________________________________
lambda_2 (Lambda)                (None, 64, 4)         0           input_1[0][0]                    
____________________________________________________________________________________________________
lambda_3 (Lambda)                (None, 64, 4)         0           input_1[0][0]                    
____________________________________________________________________________________________________
lambda_4 (Lambda)                (None, 64, 4)         0           input_1[0][0]                    
____________________________________________________________________________________________________
lambda_5 (Lambda)                (None, 64, 4)         0           input_1[0][0]                    
____________________________________________________________________________________________________
flatten_1 (Flatten)              (None, 256)           0           lambda_1[0][0]                   
____________________________________________________________________________________________________
flatten_2 (Flatten)              (None, 256)           0           lambda_2[0][0]                   
____________________________________________________________________________________________________
flatten_3 (Flatten)              (None, 256)           0           lambda_3[0][0]                   
____________________________________________________________________________________________________
flatten_4 (Flatten)              (None, 256)           0           lambda_4[0][0]                   
____________________________________________________________________________________________________
flatten_5 (Flatten)              (None, 256)           0           lambda_5[0][0]                   
____________________________________________________________________________________________________
layer_norm1d_1 (LayerNorm1D)     (None, 256)           0           flatten_1[0][0]                  
____________________________________________________________________________________________________
layer_norm1d_2 (LayerNorm1D)     (None, 256)           0           flatten_2[0][0]                  
____________________________________________________________________________________________________
layer_norm1d_3 (LayerNorm1D)     (None, 256)           0           flatten_3[0][0]                  
____________________________________________________________________________________________________
layer_norm1d_4 (LayerNorm1D)     (None, 256)           0           flatten_4[0][0]                  
____________________________________________________________________________________________________
layer_norm1d_5 (LayerNorm1D)     (None, 256)           0           flatten_5[0][0]                  
____________________________________________________________________________________________________
reshape_1 (Reshape)              (None, 64, 4)         0           layer_norm1d_1[0][0]             
____________________________________________________________________________________________________
reshape_2 (Reshape)              (None, 64, 4)         0           layer_norm1d_2[0][0]             
____________________________________________________________________________________________________
reshape_3 (Reshape)              (None, 64, 4)         0           layer_norm1d_3[0][0]             
____________________________________________________________________________________________________
reshape_4 (Reshape)              (None, 64, 4)         0           layer_norm1d_4[0][0]             
____________________________________________________________________________________________________
reshape_5 (Reshape)              (None, 64, 4)         0           layer_norm1d_5[0][0]             
____________________________________________________________________________________________________
conv1d_1 (Conv1D)                (None, 64, 32)        416         reshape_1[0][0]                  
____________________________________________________________________________________________________
conv1d_4 (Conv1D)                (None, 64, 32)        416         reshape_2[0][0]                  
____________________________________________________________________________________________________
conv1d_7 (Conv1D)                (None, 64, 32)        416         reshape_3[0][0]                  
____________________________________________________________________________________________________
conv1d_10 (Conv1D)               (None, 64, 32)        416         reshape_4[0][0]                  
____________________________________________________________________________________________________
conv1d_13 (Conv1D)               (None, 64, 32)        416         reshape_5[0][0]                  
____________________________________________________________________________________________________
leaky_re_lu_1 (LeakyReLU)        (None, 64, 32)        0           conv1d_1[0][0]                   
____________________________________________________________________________________________________
leaky_re_lu_4 (LeakyReLU)        (None, 64, 32)        0           conv1d_4[0][0]                   
____________________________________________________________________________________________________
leaky_re_lu_7 (LeakyReLU)        (None, 64, 32)        0           conv1d_7[0][0]                   
____________________________________________________________________________________________________
leaky_re_lu_10 (LeakyReLU)       (None, 64, 32)        0           conv1d_10[0][0]                  
____________________________________________________________________________________________________
leaky_re_lu_13 (LeakyReLU)       (None, 64, 32)        0           conv1d_13[0][0]                  
____________________________________________________________________________________________________
conv1d_2 (Conv1D)                (None, 64, 64)        10304       leaky_re_lu_1[0][0]              
____________________________________________________________________________________________________
conv1d_5 (Conv1D)                (None, 64, 64)        10304       leaky_re_lu_4[0][0]              
____________________________________________________________________________________________________
conv1d_8 (Conv1D)                (None, 64, 64)        10304       leaky_re_lu_7[0][0]              
____________________________________________________________________________________________________
conv1d_11 (Conv1D)               (None, 64, 64)        10304       leaky_re_lu_10[0][0]             
____________________________________________________________________________________________________
conv1d_14 (Conv1D)               (None, 64, 64)        10304       leaky_re_lu_13[0][0]             
____________________________________________________________________________________________________
leaky_re_lu_2 (LeakyReLU)        (None, 64, 64)        0           conv1d_2[0][0]                   
____________________________________________________________________________________________________
leaky_re_lu_5 (LeakyReLU)        (None, 64, 64)        0           conv1d_5[0][0]                   
____________________________________________________________________________________________________
leaky_re_lu_8 (LeakyReLU)        (None, 64, 64)        0           conv1d_8[0][0]                   
____________________________________________________________________________________________________
leaky_re_lu_11 (LeakyReLU)       (None, 64, 64)        0           conv1d_11[0][0]                  
____________________________________________________________________________________________________
leaky_re_lu_14 (LeakyReLU)       (None, 64, 64)        0           conv1d_14[0][0]                  
____________________________________________________________________________________________________
conv1d_3 (Conv1D)                (None, 64, 128)       90240       leaky_re_lu_2[0][0]              
____________________________________________________________________________________________________
conv1d_6 (Conv1D)                (None, 64, 128)       90240       leaky_re_lu_5[0][0]              
____________________________________________________________________________________________________
conv1d_9 (Conv1D)                (None, 64, 128)       90240       leaky_re_lu_8[0][0]              
____________________________________________________________________________________________________
conv1d_12 (Conv1D)               (None, 64, 128)       90240       leaky_re_lu_11[0][0]             
____________________________________________________________________________________________________
conv1d_15 (Conv1D)               (None, 64, 128)       90240       leaky_re_lu_14[0][0]             
____________________________________________________________________________________________________
leaky_re_lu_3 (LeakyReLU)        (None, 64, 128)       0           conv1d_3[0][0]                   
____________________________________________________________________________________________________
leaky_re_lu_6 (LeakyReLU)        (None, 64, 128)       0           conv1d_6[0][0]                   
____________________________________________________________________________________________________
leaky_re_lu_9 (LeakyReLU)        (None, 64, 128)       0           conv1d_9[0][0]                   
____________________________________________________________________________________________________
leaky_re_lu_12 (LeakyReLU)       (None, 64, 128)       0           conv1d_12[0][0]                  
____________________________________________________________________________________________________
leaky_re_lu_15 (LeakyReLU)       (None, 64, 128)       0           conv1d_15[0][0]                  
____________________________________________________________________________________________________
dropout_1 (Dropout)              (None, 64, 128)       0           leaky_re_lu_3[0][0]              
____________________________________________________________________________________________________
dropout_2 (Dropout)              (None, 64, 128)       0           leaky_re_lu_6[0][0]              
____________________________________________________________________________________________________
dropout_3 (Dropout)              (None, 64, 128)       0           leaky_re_lu_9[0][0]              
____________________________________________________________________________________________________
dropout_4 (Dropout)              (None, 64, 128)       0           leaky_re_lu_12[0][0]             
____________________________________________________________________________________________________
dropout_5 (Dropout)              (None, 64, 128)       0           leaky_re_lu_15[0][0]             
____________________________________________________________________________________________________
concatenate_1 (Concatenate)      (None, 64, 640)       0           dropout_1[0][0]                  
                                                                   dropout_2[0][0]                  
                                                                   dropout_3[0][0]                  
                                                                   dropout_4[0][0]                  
                                                                   dropout_5[0][0]                  
____________________________________________________________________________________________________
dropout_6 (Dropout)              (None, 64, 640)       0           concatenate_1[0][0]              
____________________________________________________________________________________________________
conv1d_16 (Conv1D)               (None, 64, 1280)      820480      dropout_6[0][0]                  
____________________________________________________________________________________________________
leaky_re_lu_16 (LeakyReLU)       (None, 64, 1280)      0           conv1d_16[0][0]                  
____________________________________________________________________________________________________
dropout_7 (Dropout)              (None, 64, 1280)      0           leaky_re_lu_16[0][0]             
____________________________________________________________________________________________________
global_average_pooling1d_1 (Glob (None, 1280)          0           dropout_7[0][0]                  
____________________________________________________________________________________________________
dense_1 (Dense)                  (None, 2)             2562        global_average_pooling1d_1[0][0] 
====================================================================================================
Total params: 1,327,842
Trainable params: 1,327,842
Non-trainable params: 0
____________________________________________________________________________________________________
None
----using backend : theano
(86400, 64, 38) (86400,)
(21568, 64, 38) (21568,)
…
